…
100, clip_grad_norm=5.0, batch_size=4, accu_grad=1, effec_batch_size=12, max_length=10, num_workers=8, causal=0, network_reference=namespace(cue='eeg'), network_audio=namespace(backbone='neuroheed', N=256, L=20, B=64, H=128, K=100, R=6), init_from='None', mix_lst_path='./data/KUL/mixture_data_list_2mix.csv', audio_direc='/data/sriyar/KUL_eeg/audio_8k/', reference_direc='/data/sriyar/KUL_eeg/eeg/', speaker_no=2, audio_sr=8000, ref_sr=128, local_rank=0, distributed=True, world_size=3, device=device(type='cuda'))
network_wrapper(
  (sep_network): neuroheed(
    (encoder): Encoder(
      (conv1d_U): Conv1d(1, 256, kernel_size=(20,), stride=(10,), bias=False)
    )
    (separator): rnn(
      (layer_norm): GroupNorm(1, 256, eps=1e-08, affine=True)
      (bottleneck_conv1x1): Conv1d(256, 64, kernel_size=(1,), stride=(1,), bias=False)
      (dual_rnn): ModuleList(
        (0-5): 6 x Dual_RNN_Block(
          (intra_rnn): LSTM(64, 128, batch_first=True, bidirectional=True)
          (inter_rnn): LSTM(64, 128, batch_first=True, bidirectional=True)
          (intra_norm): GroupNorm(1, 64, eps=1e-08, affine=True)
          (inter_norm): GroupNorm(1, 64, eps=1e-08, affine=True)
          (intra_linear): Linear(in_features=256, out_features=64, bias=True)
          (inter_linear): Linear(in_features=256, out_features=64, bias=True)
        )
      )
      (prelu): PReLU(num_parameters=1)
      (mask_conv1x1): Conv1d(64, 256, kernel_size=(1,), stride=(1,), bias=False)
      (po_encoding): PositionalEncoding(
        (dropout): Dropout(p=0.1, inplace=False)
      )
      (eeg_net): TransformerEncoder(
        (layers): ModuleList(
          (0-4): 5 x TransformerEncoderLayer(
            (self_attn): MultiheadAttention(
              (out_proj): NonDynamicallyQuantizableLinear(in_features=64, out_features=64, bias=True)
            )
            (linear1): Linear(in_features=64, out_features=256, bias=True)
            (dropout): Dropout(p=0.1, inplace=False)
            (linear2): Linear(in_features=256, out_features=64, bias=True)
            (norm1): LayerNorm((64,), eps=1e-05, elementwise_affine=True)
            (norm2): LayerNorm((64,), eps=1e-05, elementwise_affine=True)
            (dropout1): Dropout(p=0.1, inplace=False)
            (dropout2): Dropout(p=0.1, inplace=False)
          )
        )
      )
      (fusion): Conv1d(128, 64, kernel_size=(1,), stride=(1,), bias=False)
    )
    (decoder): Decoder(
      (basis_signals): Linear(in_features=256, out_features=20, bias=False)
    )
  )
)

Total number of parameters: 2884417 


Total number of trainable parameters: 2884417 

[W505 12:57:35.547710158 Utils.hpp:165] Warning: Environment variable NCCL_BLOCKING_WAIT is deprecated; use TORCH_NCCL_BLOCKING_WAIT instead (function operator())
[W505 12:57:35.547760568 Utils.hpp:136] Warning: Environment variable NCCL_ASYNC_ERROR_HANDLING is deprecated; use TORCH_NCCL_ASYNC_ERROR_HANDLING instead (function operator())
…
